…
params: 60,629,504 || trainable%: 0.2027\n","output_type":"stream"}]},{"cell_type":"code","source":"model","metadata":{"execution":{"iopub.status.busy":"2024-08-29T13:57:06.486645Z","iopub.execute_input":"2024-08-29T13:57:06.487129Z","iopub.status.idle":"2024-08-29T13:57:06.496612Z","shell.execute_reply.started":"2024-08-29T13:57:06.487093Z","shell.execute_reply":"2024-08-29T13:57:06.495385Z"},"trusted":true},"execution_count":15,"outputs":[{"execution_count":15,"output_type":"execute_result","data":{"text/plain":"PeftModelForSeq2SeqLM(\n  (base_model): T5ForConditionalGeneration(\n    (shared): Embedding(32128, 512)\n    (encoder): T5Stack(\n      (embed_tokens): Embedding(32128, 512)\n      (block): ModuleList(\n        (0): T5Block(\n          (layer): ModuleList(\n            (0): T5LayerSelfAttention(\n              (SelfAttention): T5Attention(\n                (q): Linear(in_features=512, out_features=512, bias=False)\n                (k): Linear(in_features=512, out_features=512, bias=False)\n                (v): Linear(in_features=512, out_features=512, bias=False)\n                (o): Linear(in_features=512, out_features=512, bias=False)\n                (relative_attention_bias): Embedding(32, 8)\n              )\n              (layer_norm): T5LayerNorm()\n              (dropout): Dropout(p=0.1, inplace=False)\n            )\n            (1): T5LayerFF(\n              (DenseReluDense): T5DenseActDense(\n                (wi): Linear(in_features=512, out_features=2048, bias=False)\n                (wo): Linear(in_features=2048, out_features=512, bias=False)\n                (dropout): Dropout(p=0.1, inplace=False)\n                (act): ReLU()\n              )\n              (layer_norm): T5LayerNorm()\n              (dropout): Dropout(p=0.1, inplace=False)\n            )\n          )\n        )\n        (1-5): 5 x T5Block(\n          (layer): ModuleList(\n            (0): T5LayerSelfAttention(\n              (SelfAttention): T5Attention(\n                (q): Linear(in_features=512, out_features=512, bias=False)\n                (k): Linear(in_features=512, out_features=512, bias=False)\n                (v): Linear(in_features=512, out_features=512, bias=False)\n                (o): Linear(in_features=512, out_features=512, bias=False)\n              )\n              (layer_norm): T5LayerNorm()\n              (dropout): Dropout(p=0.1, inplace=False)\n            )\n            (1): T5LayerFF(\n              (DenseReluDense): T5DenseActDense(\n                (wi): Linear(in_features=512, out_features=2048, bias=False)\n                (wo): Linear(in_features=2048, out_features=512, bias=False)\n                (dropout): Dropout(p=0.1, inplace=False)\n                (act): ReLU()\n              )\n              (layer_norm): T5LayerNorm()\n              (dropout): Dropout(p=0.1, inplace=False)\n            )\n          )\n        )\n      )\n      (final_layer_norm): T5LayerNorm()\n      (dropout): Dropout(p=0.1, inplace=False)\n    )\n    (decoder): T5Stack(\n      (embed_tokens): Embedding(32128, 512)\n      (block): ModuleList(\n        (0): T5Block(\n          (layer): ModuleList(\n            (0): T5LayerSelfAttention(\n              (SelfAttention): T5Attention(\n                (q): Linear(in_features=512, out_features=512, bias=False)\n                (k): Linear(in_features=512, out_features=512, bias=False)\n                (v): Linear(in_features=512, out_features=512, bias=False)\n                (o): Linear(in_features=512, out_features=512, bias=False)\n                (relative_attention_bias): Embedding(32, 8)\n              )\n              (layer_norm): T5LayerNorm()\n              (dropout): Dropout(p=0.1, inplace=False)\n            )\n            (1): T5LayerCrossAttention(\n              (EncDecAttention): T5Attention(\n                (q): Linear(in_features=512, out_features=512, bias=False)\n                (k): Linear(in_features=512, out_features=512, bias=False)\n                (v): Linear(in_features=512, out_features=512, bias=False)\n                (o): Linear(in_features=512, out_features=512, bias=False)\n              )\n              (layer_norm): T5LayerNorm()\n              (dropout): Dropout(p=0.1, inplace=False)\n            )\n            (2): T5LayerFF(\n              (DenseReluDense): T5DenseActDense(\n                (wi): Linear(in_features=512, out_features=2048, bias=False)\n                (wo): Linear(in_features=2048, out_features=512, bias=False)\n                (dropout): Dropout(p=0.1, inplace=False)\n                (act): ReLU()\n              )\n              (layer_norm): T5LayerNorm()\n              (dropout): Dropout(p=0.1, inplace=False)\n            )\n          )\n        )\n        (1-5): 5 x T5Block(\n          (layer): ModuleList(\n            (0): T5LayerSelfAttention(\n              (SelfAttention): T5Attention(\n                (q): Linear(in_features=512, out_features=512, bias=False)\n                (k): Linear(in_features=512, out_features=512, bias=False)\n                (v): Linear(in_features=512, out_features=512, bias=False)\n                (o): Linear(in_features=512, out_features=512, bias=False)\n              )\n              (layer_norm): T5LayerNorm()\n              (dropout): Dropout(p=0.1, inplace=False)\n            )\n            (1): T5LayerCrossAttention(\n              (EncDecAttention): T5Attention(\n                (q): Linear(in_features=512, out_features=512, bias=False)\n                (k): Linear(in_features=512, out_features=512, bias=False)\n                (v): Linear(in_features=512, out_features=512, bias=False)\n                (o): Linear(in_features=512, out_features=512, bias=False)\n              )\n              (layer_norm): T5LayerNorm()\n              (dropout): Dropout(p=0.1, inplace=False)\n            )\n            (2): T5LayerFF(\n              (DenseReluDense): T5DenseActDense(\n                (wi): Linear(in_features=512, out_features=2048, bias=False)\n                (wo): Linear(in_features=2048, out_features=512, bias=False)\n                (dropout): Dropout(p=0.1, inplace=False)\n                (act): ReLU()\n              )\n              (layer_norm): T5LayerNorm()\n              (dropout): Dropout(p=0.1, inplace=False)\n            )\n          )\n        )\n      )\n      (final_layer_norm): T5LayerNorm()\n      (dropout): Dropout(p=0.1, inplace=False)\n    )\n    (lm_head): Linear(in_features=512, out_features=32128, bias=False)\n  )\n  (prompt_encoder): ModuleDict(\n    (default): PrefixEncoder(\n      (embedding): Embedding(20, 6144)\n    )\n  )\n  (word_embeddings): Embedding(32128, 512)\n)"},"metadata":{}}]},{"cell_type":"code","source":"device = 'cuda' if torch.cuda.is_available() else 'cpu'\n\nmodel.to(device)\nmodel = torch.nn.DataParallel(model)","metadata":{"execution":{"iopub.status.busy":"2024-08-29T13:57:06.497835Z","iopub.execute_input":"2024-08-29T13:57:06.49816Z","iopub.status.idle":"2024-08-29T13:57:06.842657Z","shell.execute_reply.started":"2024-08-29T13:
…
